server/black/mlp_encoder.pth (torch, 406896 bytes, 4 tensors)

fc1.weight f4 [64, 784]
000000 4e fd c9 bc 86 bd 49 bd ce 4b 87 3c fa 98 51 bd
       -0.024656918 -0.04925301 0.016515639 -0.05117128
000010 d4 35 f0 ba 51 76 ff bb 50 d7 54 bd 14 c9 b4 bc
       -0.0018326589 -0.007796087 -0.05196315 -0.022068538
000020 80 b5 35 bc 2f 54 00 bd 78 e3 4e bd d9 b6 00 3b
       -0.011090636 -0.031330284 -0.0505099 0.0019640236
000030 17 eb 5f 3b 56 50 49 bb 1e 72 5d ba ad 34 24 bc
       0.0034167224 -0.003071805 -0.0008447486 -0.0100223245
000040 b6 cd 27 bc ba a4 30 bd 6e 37 c7 bb 72 ea b3 3b
       -0.010241916 -0.043125845 -0.006079606 0.0054905945
000050 26 5b 74 3c 6e d8 f1 bc 31 41 7f bb 42 29 1d bd
       0.01491431 -0.029522147 -0.003894877 -0.038369425
000060 de 5d 39 3c 6c b9 ec 3b a6 c0 21 bd 8a 8d 59 bd
       0.011313884 0.0072242524 -0.039490364 -0.053113498
000070 14 4c dc bc 9c 98 db 3a 2c a2 47 bd d4 6b b9 bc
       -0.026891746 0.0016753855 -0.048738644 -0.022634424
000080 a3 9b 57 bd 9d 64 64 3c b3 5e a3 bc 36 ff 0f 3c
       -0.05263866 0.013940004 -0.019942617 0.008788874
000090 11 49 06 bb d8 5d 7a b8 cf e5 79 38 31 a7 9c 39
       -0.0020490328 -5.9692044e-05 5.9580252e-05 0.00029879206
0000a0 9c a9 01 ba 57 d8 8b 38 a2 3c df b8 d8 aa 8a 36
       -0.0004946233 6.668333e-05 -0.000106447624 4.1326093e-06
0000b0 11 a2 5b 3a 42 de 95 39 e2 0e cd 39 7a be 04 b7
       0.0008378337 0.0002858509 0.00039111736 -7.912162e-06
0000c0 3a c6 a8 ba 35 85 cd 3a f9 fd a4 bb 52 03 34 bb
       -0.0012876459 0.0015679958 -0.0050351587 -0.00274678
0000d0 26 61 78 bc f9 d1 79 3a f4 d1 b7 bc 48 21 8a bc
       -0.015159881 0.00095298846 -0.02243898 -0.016861573
0000e0 1e d3 d1 bc 7a 76 7e bc 8c c6 c9 bc bd d5 30 bc
       -0.025613364 -0.015531177 -0.024630807 -0.010793147
0000f0 50 aa f4 bb 59 8c 8c bc f9 a9 10 3b 98 a4 03 38
       -0.007466592 -0.017156767 0.0022073968 3.1386124e-05
000100 da 88 0b 3a bd df 8d 3a 8a b0 ab b9 f3 b8 9b 3a
       0.00053228217 0.0010824125 -0.00032747193 0.0011880681
000110 a6 8a 30 3a 4c 95 1d 3a d2 f5 a0 3a a8 42 51 3a
       0.00067345274 0.00060113217 0.0012280291 0.000798265
000120 2a 9a 5c 3a d8 21 b9 39 2a b6 46 3a 14 c1 9f 37
       0.0008415306 0.00035311165 0.0007580245 1.9044186e-05
000130 cd 65 ba 39 18 0f cb b9 af 87 d6 39 3c ee b2 b9
       0.00035552532 -0.00038730423 0.00040918353 -0.00034128304
000140 c8 dc 97 3a 26 0d 12 bb 52 58 d9 bc 5a 26 83 b9
       0.0011586184 -0.002228567 -0.026531372 -0.0002501484
000150 92 d7 4c bd ce 5e 17 bd b2 36 4b ba 7b a4 0a 3c
       -0.05001027 -0.036955647 -0.00077519857 0.008462067
000160 39 65 2b bc 22 14 f6 3a f3 c2 84 ba 13 c2 43 3a
       -0.010461145 0.0018774311 -0.00101289 0.0007467579
000170 be 7f 6e 39 86 9b 3c 3a 36 c8 ee 3a 94 63 22 3b
       0.00022745036 0.00071948057 0.0018217626 0.0024778591
000180 32 6e 49 3b 74 ec 7e 3b 9f 91 64 3b ce f9 79 3b
       0.0030735848 0.0038898261 0.0034876836 0.003814328
000190 c6 0c 29 3b 92 47 cc 3a 9b 74 34 3a 0b b9 eb b9
       0.0025794967 0.0015585294 0.00068838306 -0.0004496056
0001a0 6c 9b 16 3a 5f b8 aa 39 0d 06 b0 b8 32 fa aa b9
       0.00057452056 0.00032562294 -8.393461e-05 -0.00032611337
0001b0 fe 4b b2 b8 7d 0b ec ba 62 37 49 bb 28 2d de ba
       -8.501856e-05 -0.0018008795 -0.0030703177 -0.0016950713
0001c0 f0 c4 0e bc 41 11 ad bc a4 f6 5e bc e1 3d 45 bc
       -0.008713946 -0.021126391 -0.013608608 -0.012038679
0001d0 9f c8 e8 3a ea 98 72 39 a4 a3 c6 39 7b 42 09 3a
       0.0017759985 0.00023135883 0.00037887425 0.00052360416
0001e0 a1 b3 0f 3a e1 64 3e 3b 13 d9 33 3b 34 5a 86 3b
       0.0005481784 0.0029051828 0.0027442619 0.0041001085
0001f0 b3 d2 af 3b 12 7a c0 3b bb 68 ce 3b 95 0a ba 3b
       0.0053656935 0.005873927 0.006299106 0.005677531
000200 3e 7c 4a 3b 5c 90 37 3a 50 53 11 39 51 71 cf b9
       0.0030896808 0.0007002407 0.00013859314 -0.00039566544
000210 c3 c3 90 38 6c 20 31 39 1a c5 77 3a ca 1b 20 3a
       6.9029185e-05 0.00016892113 0.00094516727 0.00061076565
000220 c2 8e 06 38 99 29 2a 3a e4 19 fc ba 82 e1 52 3c
       3.2081043e-05 0.0006491184 -0.001923379 0.012871148
000230 72 48 9d 3b 78 57 82 bc 76 dc d2 bb d2 9b f6 3a
       0.004799896 -0.015910849 -0.0064349724 0.0018814749
000240 5c dd 4b ba b6 82 d5 39 c5 01 50 3a 2d 80 ff 3a
       -0.00077768206 0.00040723913 0.0007934834 0.0019493155
000250 2b dc 21 3b e4 20 ec 3a a1 3a df 3a d1 3b fa 3a
       0.002469788 0.0018015173 0.0017031023 0.0019091313
000260 2b f5 a1 3b b9 5d c6 3b 71 77 c4 3b 87 f9 4e 3b
       0.0049425564 0.006053653 0.005995684 0.0031581835
000270 40 6a c4 39 cb a2 2c bb 5a cc 76 bb 0d 8a e7 ba
       0.00037463196 -0.002634215 -0.0037658424 -0.0017665044
000280 1f 61 f4 38 b6 4b b3 ba 48 54 d7 ba 5b 03 ab ba
       0.00011652917 -0.001367918 -0.0016428316 -0.0013047265
000290 b1 19 7c b9 f0 bc 9a ba 47 7c ba 39 01 a5 87 bc
       -0.00024042164 -0.0011805575 0.00035569278 -0.016558172
0002a0 f6 3c 35 bd d6 f5 1a bd 20 f1 49 bb bd dd 44 b9
       -0.04424759 -0.037832104 -0.0030813888 -0.0001877462
0002b0 21 84 2a b9 e5 db 27 39 68 f5 a7 3a a9 30 e0 3a
       -0.00016261685 0.00016008278 0.0012814226 0.0017104346
0002c0 60 b3 f0 3a f8 e1 da 3a 2f ef d0 3a 4b 12 f2 3a
       0.0018364005 0.0016699424 0.0015940423 0.0018468586
0002d0 e8 b9 da 3b 71 12 fd 3b a1 75 4a 3c bd 13 14 3c
       0.006674994 0.0077231457 0.0123571465 0.009037909
0002e0 40 9d 49 3b 16 49 81 ba 98 2e d4 ba 05 db 19 bb
       0.0030763894 -0.00098637 -0.0016188202 -0.0023476493
0002f0 61 45 27 ba 6d a4 db ba de 51 13 bb 92 9d e0 ba
       -0.00063808827 -0.0016757377 -0.0022479217 -0.0017136803
000300 8c af bb ba 47 62 cf b9 34 87 4d 38 1a 6a 42 39
       -0.0014319285 -0.0003955534 4.9001726e-05 0.00018540808
000310 4d bf 9a 3c a8 8c 30 3a f7 74 82 39 7c 6d a2 b8
       0.018890047 0.00067348266 0.00024882678 -7.745155e-05
000320 83 a0 c2 b8 a9 64 d9 3a 33 c7 6f 3a fd 33 a2 3a
       -9.2805385e-05 0.0016585785 0.00091468095 0.0012375113
000330 b1 1f 8d 3a 2a fa a7 3a 88 66 19 3b 91 22 a1 3b
       0.0010766891 0.0012815644 0.002340706 0.0049174507
000340 ef 80 2d 3c 61 1c 67 3c ab 3a 65 3c 46 62 28 3c
       0.010589822 0.014105887 0.013991038 0.010277336
000350 c7 fa e3 3b 8d 03 6f 3b e8 d6 1e 3b b6 35 bb ba
       0.006957385 0.0036470622 0.002423698 -0.0014282975
000360 75 15 f0 ba 31 54 26 bb 7c a7 09 bb c5 b8 30 bb
       -0.0018316942 -0.0025379772 -0.002100437 -0.00269656
000370 87 9e e6 b9 70 70 23 ba 9d ed 42 b9 d3 e2 4f 3a
       -0.0004398713 -0.0006234711 -0.000185898 0.0007930223
000380 1e 9c 47 bc 94 4b 0d ba d6 5b 31 ba f8 6b 81 ba
       -0.012183217 -0.0005389985 -0.0006765699 -0.0009874096
000390 b8 64 97 b9 31 9b 81 b8 c2 7a 8f 3a b9 58 0d 3a
       -0.00028876006 -6.180106e-05 0.0010946619 0.0005391944
0003a0 28 26 85 37 6c 1c 22 b8 2f 0c 67 3b 26 1b 04 3c
       1.5872603e-05 -3.865028e-05 0.0035255065 0.008063113
0003b0 cc 34 30 3c f0 2e 26 3c e8 9c 0c 3c 5f 7a c7 3b
       0.010754775 0.010143027 0.008582331 0.006087586
0003c0 b9 2b a4 3b a8 77 84 3b aa 3f 9e 3b 88 01 7c ba
       0.005010095 0.0040425844 0.0048293667 -0.0009613265
0003d0 91 18 50 bb cd a7 2f bb 22 eb 22 ba 27 b1 36 b9
       -0.0031752924 -0.0026802898 -0.0006214847 -0.00017422867
0003e0 1d fe b4 b9 05 73 c7 b9 46 bd ae 39 5a 5e e4 ba
       -0.00034521605 -0.00038041934 0.00033328886 -0.0017423138
0003f0 8a 9b 70 bc 0a 38 99 39 98 7c 41 ba 42 91 91 ba
       -0.014685521 0.00029224186 -0.00073809316 -0.0011105912

fc1.bias f4 [64]
000000 0e 7f 38 3d e6 47 99 bc 9e 18 11 3d 8d ba 93 3c
       0.045043044 -0.018711042 0.035423867 0.01803329
000010 0d 43 50 bc 9f e4 0a bd 26 eb 7b bc 90 d4 80 bc
       -0.012711299 -0.033909436 -0.015375888 -0.015726358
000020 bd 65 4c 3c 07 e7 9e 3c 97 b0 2c 3c d6 f3 9d 3c
       0.012475428 0.019397272 0.010540149 0.01928131
000030 75 24 ae 39 08 f9 96 bc b5 bc ce 3c 8d 6f c9 3b
       0.0003321503 -0.018429294 0.025236467 0.006147331
000040 4a 26 c3 3c d0 dd ac 3a 59 6f 86 3a 8d ae ef 3a
       0.023821969 0.0013188664 0.0010256573 0.0018286273
000050 bc 94 b2 3a 3f a3 29 bc 37 56 9e 3c 31 88 cc 3c
       0.0013624649 -0.010353862 0.01932822 0.024967285
000060 89 8a 01 3d 8c ea 0e bd e1 01 c4 bc 12 a0 5a bc
       0.031626258 -0.03489165 -0.023926677 -0.013343828
000070 bc 17 37 bc c0 5c eb bc 3c c6 03 3c 6b da e7 bb
       -0.011175092 -0.02873075 0.008042868 -0.007075598
000080 4a e4 be 3b e0 6a e3 bc 04 b8 aa 3c 42 3c 24 3d
       0.005825554 -0.027760923 0.020839699 0.04009653
000090 4c ec b4 bc c3 19 7f bc 60 6b 37 bc 14 6a 6e 3b
       -0.022085331 -0.015570107 -0.011195034 0.0036379145
0000a0 17 35 ea bc a5 e4 4c 3a 1f 9f 2f 3c 9e 88 20 bc
       -0.028589768 0.0007816053 0.01071909 -0.009798197
0000b0 8b ae bf bc 74 19 a9 bc 13 03 78 bc 01 e9 65 bc
       -0.023398658 -0.02064202 -0.015137452 -0.014032603
0000c0 81 9b 10 3d f5 2d ff bc 74 fd 97 bc 3a a0 6b 3c
       0.03530455 -0.031149844 -0.018553473 0.014381463
0000d0 1a 13 66 bc ba 9b a3 bb 0f 44 2c bd d6 4a 14 3c
       -0.01404264 -0.0049929293 -0.042057093 0.009051045
0000e0 59 56 8a bc e2 eb 27 bd 40 b3 30 3c eb 57 51 3c
       -0.016886877 -0.04099644 0.010784924 0.012777309
0000f0 40 9a f7 3b 01 9a da 3c e4 d3 da bb d7 82 61 3c
       0.00755623 0.026684763 -0.0066780914 0.013764105

fc2.weight f4 [784, 64]
000000 d1 8b d0 b1 18 8e 9c 3d 08 b5 de 30 4d da 77 bc
       -6.069492e-09 0.0764429 1.6204078e-09 -0.015127731
000010 d7 d7 c8 31 2f 8c 10 3d 82 ca 82 3d e4 7e a5 bd
       5.8453042e-09 0.03528994 0.063862815 -0.08080843
000020 9a 27 de bd fc 36 ec 3a b2 6d 3b b2 9c 6c 59 b2
       -0.10847397 0.0018021758 -1.0909774e-08 -1.2655757e-08
000030 9b 52 77 b2 2f 20 e1 bc 49 b1 ab 3c 6f 55 4b 3d
       -1.43960746e-08 -0.027481167 0.02095856 0.049642023
000040 2f 75 d0 bd 9c 24 39 bd 44 7f 3f bc 79 8f 8e bd
       -0.10178601 -0.04520093 -0.011688057 -0.06960959
000050 41 78 07 3d f4 de cb 3d fc 67 77 3d ec fa 64 b2
       0.033073667 0.09954634 0.0604019 -1.33284e-08
000060 3d ac 40 b2 ac bc 9d 3d 2e 96 99 31 91 bd 04 be
       -1.1215033e-08 0.07702002 4.4699595e-09 -0.12962939
000070 e3 7c 49 bd 4f 94 2c 3d b4 50 9c 3d 03 b7 13 3c
       -0.049191367 0.042133626 0.076325804 0.009015801
000080 01 97 f8 bc ae 1b 2d bc 68 b1 f8 3b 4b b3 79 b2
       -0.030345442 -0.010565681 0.007589508 -1.4534474e-08
000090 9d 8d 8e b2 95 3a bb 3d dd 05 f0 bb 5e 68 3a 3d
       -1.6595374e-08 0.09142033 -0.0073249177 0.04550969
0000a0 fe be c6 bd c7 14 76 b2 14 73 ab bd 47 21 3a 3d
       -0.097043976 -1.4323809e-08 -0.08371559 0.045441892
0000b0 a6 f2 45 bc ea 00 cd bd 8b 6f 19 31 3a 80 88 3d
       -0.012081778 -0.1000994 2.2327835e-09 0.06665082
0000c0 02 13 09 b2 89 6d 58 bb b8 b2 e7 3d 4a e9 02 be
       -7.978771e-09 -0.0033024272 0.11313385 -0.12784305
0000d0 e2 2a 3d b2 43 9d 8c bd 11 aa 0d bd 84 8c 6e 3a
       -1.1010998e-08 -0.06865933 -0.034586016 0.0009099918
0000e0 7d 3e b6 b1 e1 9d de bb ce 42 4b b2 d8 9e c8 3d
       -5.3040012e-09 -0.006793723 -1.1831345e-08 0.09795922
0000f0 d6 05 ad bd c5 ca eb 3d 25 58 7f bc 35 87 47 3d
       -0.08448379 0.115132846 -0.01558498 0.048712928
000100 bf 97 00 b2 90 8e de 3d d0 b1 e6 b0 da 38 b3 3d
       -7.485084e-09 0.108670354 -1.678524e-09 0.08751078
000110 f5 db 92 b0 73 ec df 3d f6 71 22 3d 51 75 b6 bd
       -1.0685414e-09 0.10933771 0.039659463 -0.08909095
000120 30 93 bb 3d 01 d8 35 3d d1 11 ec b1 84 02 72 af
       0.09158933 0.04439545 -6.8705295e-09 -2.2010666e-10
000130 ef 9b 28 b2 12 12 49 3d 89 94 74 3d d7 a4 00 bd
       -9.814342e-09 0.0490895 0.059711967 -0.031407204
000140 aa 4c 53 3c 3e 31 9b 3d 53 1a df bc a6 3d d2 3d
       0.012896696 0.075777516 -0.027234232 0.10265665
000150 13 da 22 bc 06 87 af bc fc 8c b9 3d e7 a9 e4 b1
       -0.009939688 -0.021426689 0.09060094 -6.654989e-09
000160 2b f5 4f b2 c6 12 a2 3d 9c fb 39 31 56 85 95 bd
       -1.21047306e-08 0.07913737 2.7064067e-09 -0.073008224
000170 4e 05 36 3d 56 0e d5 3d a7 10 bb 3d c9 d8 e9 bd
       0.044438653 0.10403125 0.091340356 -0.114183016
000180 d9 13 be 3d ea 21 ef 3d 31 c2 78 3d 3c ee a6 31
       0.092811294 0.116763905 0.06073207 4.85832e-09
000190 ae fe b5 31 2a ff de bd 8e 6b ab 3c 07 90 9e bc
       5.296747e-09 -0.108885124 0.02092531 -0.019355787
0001a0 41 2e f1 bc a2 f3 4c b1 99 47 00 3d 16 ec c1 bd
       -0.029441 -2.9824396e-09 0.03131828 -0.09468858
0001b0 29 b7 37 3d 13 25 42 bc b5 c7 c1 b0 ff e1 c9 bd
       0.04485241 -0.0118496595 -1.4099358e-09 -0.098575585
0001c0 e8 17 9a 30 93 b4 05 be a6 58 cb 3d 20 68 5d bd
       1.1211769e-09 -0.13057165 0.09929018 -0.05405438
0001d0 bf 52 08 b2 cf 4b 85 3d 00 67 95 bd 43 d0 bc 3d
       -7.935056e-09 0.065086 -0.07295036 0.0921941
0001e0 b6 e3 37 b2 74 b7 a8 3a de bb 14 31 60 02 c3 bd
       -1.0703777e-08 0.0012872056 2.1643625e-09 -0.09521937
0001f0 12 d3 7d bd f5 9a f7 bd cc 05 d3 3d 8d be cc bd
       -0.06196887 -0.120901026 0.1030384 -0.09997282
000200 f0 80 00 b2 66 da b6 bd cd c5 2b b1 ce a1 a0 3d
       -7.479898e-09 -0.08928375 -2.4996212e-09 0.07843362
000210 94 61 13 b2 2b f1 c2 bc 6e 7a 88 3c a3 b7 da bc
       -8.578713e-09 -0.023796638 0.016659942 -0.026698893
000220 71 53 a0 bd f0 3a ad 3d e7 d1 0e b2 62 a2 5e b2
       -0.07828415 0.08458507 -8.313214e-09 -1.2959022e-08
000230 1a f8 c3 b1 e0 b2 c1 3d 2f 06 fe bd c4 54 1e 3d
       -5.703453e-09 0.09457946 -0.12403523 0.038655058
000240 62 77 d1 3d 42 9f 81 bd 0f 82 dd 3d 67 9d bd bd
       0.102278486 -0.06329204 0.10815822 -0.09258538
000250 1b 0d fb bd d5 0e a6 3b 5a 93 04 be 3f 91 0d 31
       -0.12258359 0.005067686 -0.12946835 2.0600763e-09
000260 bb ca 72 31 31 d3 f8 bd a2 4c 5c b2 2b 96 ef bc
       3.5330874e-09 -0.121496566 -1.282311e-08 -0.02924641
000270 8e 3b e6 3d 4e 55 ea 3d 27 d6 fe bd fd b2 bf bd
       0.11241828 0.11442052 -0.1244319 -0.09360311
000280 f1 1f cd bc 49 e6 69 3c d6 e8 af bc ca 88 2b b2
       -0.025039645 0.014276096 -0.02147333 -9.984612e-09
000290 9c 6a e8 b1 83 15 0b 3c 48 e9 46 bd 73 be 0b bd
       -6.7642087e-09 0.0084890155 -0.048562318 -0.034117173
0002a0 47 cf 24 3d c6 77 ec b1 89 ec a1 bc ab 5b 90 bd
       0.040236738 -6.8821207e-09 -0.019766109 -0.07048734
0002b0 7b 1c 10 3d e8 53 56 bc f9 fd fd b1 66 06 c2 3c
       0.03518341 -0.013081528 -7.3921425e-09 0.023684692
0002c0 de f5 4a b2 6d c0 db 3d 07 c3 f0 bb b1 d1 9c 3d
       -1.1813851e-08 0.10730062 -0.007347468 0.07657183
0002d0 a2 f2 1a 31 4f 44 6e 3d bf ea ad bd 00 1e ae bd
       2.254787e-09 0.058170613 -0.0849204 -0.08501816
0002e0 f1 8d e9 b1 bb 7e 77 3d 3e 3a f8 b1 c3 df 5d bc
       -6.7973294e-09 0.060423594 -7.2243713e-09 -0.0135421185
0002f0 0b 20 ea 3d d9 43 80 3d 14 b6 08 3d 1f 09 d6 3d
       0.11431893 0.06262941 0.03337677 0.104509585
000300 58 4b 6d b1 57 d4 ac 3d 04 37 7b b1 77 50 a4 bd
       -3.4530867e-09 0.08438938 -3.655658e-09 -0.0802316
000310 7a 88 2d b2 f6 75 92 3d e6 4f ed 3d 19 d4 cc 3d
       -1.01009565e-08 0.071514055 0.11587505 0.10001392
000320 02 5e 6f bd 3f fd e7 bd a5 b3 31 b2 e2 d0 d8 b1
       -0.058439262 -0.113276 -1.0343602e-08 -6.3101746e-09
000330 08 ae fb 2f 8a c5 82 bc fb f1 ea 3d ac 52 83 bd
       4.578029e-10 -0.015963335 0.11471935 -0.06412253
000340 04 d7 39 bc 3a 5e cd bd a0 58 92 3c f1 92 ee bd
       -0.011342768 -0.10027738 0.017864525 -0.116491206
000350 41 1e cb bd b0 ee 22 bc fb 51 97 3c b6 34 a0 30
       -0.0991788 -0.009944603 0.018471709 1.1656514e-09
000360 e2 2e 86 31 82 40 f6 bd 16 0e 8d 31 ed 24 4b 3a
       3.9052432e-09 -0.12024023 4.1052415e-09 0.0007749338
000370 d5 8e a7 3d b1 3b 93 bd 29 c0 dd bc 8f ff c7 3d
       0.0818154 -0.071891196 -0.027069168 0.09765541
000380 0e e1 d1 3d d7 9d 76 3d f3 6c 53 3c 23 4c 40 b1
       0.10248004 0.06020912 0.0129043935 -2.7982956e-09
000390 57 34 79 30 e3 85 99 3d f0 2d ce 3d 9d 14 8b 3d
       9.066005e-10 0.0749624 0.10067356 0.06791041
0003a0 3c 3b 8c bd 8a 14 26 b2 7d 57 90 bd 1c b1 ea 3d
       -0.068472356 -9.667142e-09 -0.07047937 0.11459562
0003b0 a0 83 78 3d 3b 52 fc bd a9 ce 67 b1 ea 6f 29 3d
       0.060672402 -0.12320372 -3.3732397e-09 0.041366495
0003c0 93 b4 2f b1 20 1d 55 3d 46 6d 3d 3d b6 e0 7d bc
       -2.5568496e-09 0.05202973 0.04624679 -0.01549547
0003d0 75 2c a5 b1 64 3d c4 bd 2c 3a 8c 3d 71 05 21 ba
       -4.807186e-09 -0.09582022 0.06847033 -0.00061424734
0003e0 09 b1 c7 b1 f3 96 31 bd 8f d1 ab 2f a4 88 e6 3d
       -5.811789e-09 -0.043356847 3.125362e-10 0.11256531
0003f0 61 e3 50 bd c6 ac 79 3b 66 59 d0 3c 81 3f bc 3d
       -0.050998095 0.0038097366 0.025433253 0.091918

fc2.bias f4 [784]
000000 00 00 80 bf 00 00 80 bf 00 00 80 bf 00 00 80 bf
       -1.0 -1.0 -1.0 -1.0
000010 00 00 80 bf 00 00 80 bf 00 00 80 bf 00 00 80 bf
       -1.0 -1.0 -1.0 -1.0
000020 00 00 80 bf 00 00 80 bf 00 00 80 bf 00 00 80 bf
       -1.0 -1.0 -1.0 -1.0
000030 a0 1b 80 bf f1 30 80 bf 27 13 80 bf 68 ff 7f bf
       -1.000843 -1.0014936 -1.0005845 -0.99999094
000040 00 00 80 bf 00 00 80 bf 00 00 80 bf 00 00 80 bf
       -1.0 -1.0 -1.0 -1.0
000050 00 00 80 bf 00 00 80 bf 00 00 80 bf 00 00 80 bf
       -1.0 -1.0 -1.0 -1.0
000060 00 00 80 bf 00 00 80 bf 00 00 80 bf 00 00 80 bf
       -1.0 -1.0 -1.0 -1.0
000070 00 00 80 bf 00 00 80 bf 00 00 80 bf 00 00 80 bf
       -1.0 -1.0 -1.0 -1.0
000080 1c 00 80 bf cc 00 80 bf 98 02 80 bf 64 fb 7f bf
       -1.0000033 -1.0000243 -1.0000792 -0.99992967
000090 aa f1 7f bf 67 cd 7f bf b6 03 80 bf 06 a6 80 bf
       -0.99978125 -0.99922794 -1.0001132 -1.0050666
0000a0 f5 f4 80 bf 42 fe 80 bf ef 2a 81 bf 55 3a 81 bf
       -1.0074755 -1.0077593 -1.0091227 -1.0095927
0000b0 a5 d0 80 bf 38 8b 80 bf 8f 61 80 bf 40 ec 7f bf
       -1.0063673 -1.0042486 -1.0029773 -0.99969864
0000c0 ee 09 80 bf 05 1f 80 bf 2d 0a 80 bf 7a 01 80 bf
       -1.000303 -1.0009466 -1.0003105 -1.0000451
0000d0 00 00 80 bf 00 00 80 bf 00 00 80 bf 00 00 80 bf
       -1.0 -1.0 -1.0 -1.0
0000e0 00 00 80 bf 00 00 80 bf 05 f3 7f bf 0d 00 80 bf
       -1.0 -1.0 -0.99980193 -1.0000015
0000f0 f0 f0 7f bf e9 f8 7f bf 88 82 7f bf 64 8c 7e bf
       -0.99977016 -0.9998918 -0.9980855 -0.9943297
000100 62 df 7c bf d1 c0 7a bf 87 b6 79 bf 8e 84 7a bf
       -0.98778355 -0.97950464 -0.9754414 -0.9785851
000110 f1 c6 7b bf 52 f5 80 bf c2 0c 81 bf 75 99 7a bf
       -0.98350435 -1.0074866 -1.0082018 -0.97890407
000120 a4 a7 71 bf 88 a7 67 bf 0d e3 5f bf 03 14 62 bf
       -0.94396424 -0.9049001 -0.87455827 -0.88311785
000130 20 84 6d bf ea d1 76 bf 45 12 7c bf 30 66 7e bf
       -0.9277973 -0.96414053 -0.9846538 -0.99374676
000140 d5 13 80 bf 43 21 80 bf 00 00 80 bf 00 00 80 bf
       -1.0006052 -1.0010151 -1.0 -1.0
000150 00 00 80 bf 00 00 80 bf d5 14 80 bf a0 04 80 bf
       -1.0 -1.0 -1.0006357 -1.0001411
000160 a3 fa 7f bf 20 41 7f bf 6e a0 7d bf d4 04 79 bf
       -0.99991816 -0.9970875 -0.9907292 -0.9727299
000170 c2 4e 73 bf 94 e1 69 bf f7 82 62 bf f9 f0 5b bf
       -0.9504205 -0.9135983 -0.88481086 -0.8591457
000180 aa 69 5e bf d1 6a 66 bf ae 06 5e bf 8c ca 45 bf
       -0.8687998 -0.9000674 -0.8672894 -0.77262187
000190 10 59 27 bf a9 51 08 bf 43 0a 04 bf 1a 6a 19 bf
       -0.65370274 -0.53249604 -0.5157816 -0.59927523
0001a0 5a f5 3f bf 10 cd 5c bf 21 93 6f bf c6 8d 79 bf
       -0.7498375 -0.862504 -0.93583876 -0.97481954
0001b0 36 6b 7d bf 9f 03 80 bf 0d f9 7f bf 00 00 80 bf
       -0.98991716 -1.0001105 -0.99989396 -1.0
0001c0 00 00 80 bf 0b 01 80 bf 8d fd 7f bf 19 04 80 bf
       -1.0 -1.0000318 -0.9999626 -1.000125
0001d0 6c aa 7f bf a9 e6 7c bf c3 86 78 bf 7f 50 71 bf
       -0.9986942 -0.9878946 -0.9708063 -0.9426345
0001e0 a6 fe 64 bf a1 8c 53 bf ab ae 4c bf 0a a8 56 bf
       -0.8945106 -0.8263646 -0.7995402 -0.8385016
0001f0 49 7f 7d bf 70 50 97 bf 47 39 a4 bf 6d 96 96 bf
       -0.99022347 -1.1821423 -1.282998 -1.1764656
000200 12 35 67 bf 60 30 26 bf f6 a2 0b bf 29 35 1a bf
       -0.90315354 -0.64917564 -0.54545534 -0.60237366
000210 ab 9b 36 bf be 49 47 bf 75 42 57 bf c4 65 66 bf
       -0.7133128 -0.77846897 -0.8408578 -0.8999903
000220 d8 00 72 bf 0c 7f 7b bf 51 57 7f bf 8c fa 7f bf
       -0.9453254 -0.98240733 -0.9974261 -0.9999168
000230 00 00 80 bf 00 00 80 bf f9 e6 7f bf 75 83 7f bf
       -1.0 -1.0 -0.9996181 -0.9980996
000240 44 03 7f bf 63 ac 7b bf 42 6c 73 bf c2 2d 69 bf
       -0.9961436 -0.98309916 -0.95087063 -0.91085446
000250 69 aa 59 bf cf 56 50 bf 0f 15 6a bf 06 5f 9f bf
       -0.8502565 -0.8138246 -0.9143838 -1.2450874
000260 82 bc dc bf 60 0a 08 c0 6d 25 11 c0 2c d2 03 c0
       -1.7245028 -2.1256332 -2.2679093 -2.0597029
000270 37 6f d6 bf ea 45 a4 bf c5 28 83 bf 45 8e 61 bf
       -1.675269 -1.2833836 -1.0246817 -0.8810771
000280 e9 e3 4b bf f6 e2 32 bf e1 ab 2f bf ce d1 3a bf
       -0.7964464 -0.69877565 -0.6862164 -0.72976387
000290 6f 84 52 bf 74 d5 6e bf 8e 49 7d bf de f1 7f bf
       -0.8223333 -0.93294454 -0.9894036 -0.99978435
0002a0 00 00 80 bf 2f 00 80 bf d0 16 80 bf 7b 81 7f bf
       -1.0 -1.0000056 -1.0006962 -0.99806947
0002b0 39 d9 7e bf 4f 3d 79 bf a8 7b 69 bf c8 00 50 bf
       -0.99550205 -0.97359174 -0.9120431 -0.8125119
0002c0 8f 74 30 bf 9b 60 2d bf 45 3a 7e bf 5b 3a cd bf
       -0.68927854 -0.67725533 -0.9930766 -1.6033434
0002d0 ac ba 0a c0 9f 9b 16 c0 fc 30 0a c0 dd f7 e1 bf
       -2.1676435 -2.3532484 -2.1592398 -1.7653767
0002e0 18 b6 b2 bf d6 08 8c bf 0b 2a 6b bf 71 3a 50 bf
       -1.3961821 -1.0940197 -0.9186103 -0.81339175
0002f0 1f e5 34 bf cd cb 12 bf c8 e2 f9 be 3c 74 06 bf
       -0.7066211 -0.57342225 -0.48805833 -0.5252111
000300 97 51 2b bf 26 3f 5c bf 2f f3 78 bf 7c ab 7f bf
       -0.6692137 -0.86033857 -0.9724607 -0.9987104
000310 e7 ff 7f bf df 01 80 bf 5b 96 7f bf ff 5e 7e bf
       -0.9999985 -1.0000571 -0.998388 -0.993637
000320 d9 52 78 bf 00 b9 63 bf 59 d0 38 bf a5 0f e0 be
       -0.97001415 -0.8895416 -0.72192913 -0.43761936
000330 f4 60 29 be 85 9d 42 be d0 8b 3a bf 6b 20 b0 bf
       -0.16540891 -0.19005401 -0.72869587 -1.3759893
000340 a8 76 c1 bf 35 ff 84 bf 76 59 fb be ad 03 6f be
       -1.5114336 -1.0390383 -0.4909169 -0.23341246
000350 d2 26 5e be 3f 0c 7b be bb 53 7a be 14 53 96 be
       -0.21694496 -0.2451639 -0.24446003 -0.2936026
000360 c1 b9 b5 be df 11 b7 be cc 21 b3 be d3 64 c9 be
       -0.3549328 -0.35755822 -0.34986722 -0.39334735
000370 b4 46 0c bf 0d 85 4c bf db 71 76 bf b2 c9 7f bf
       -0.54795384 -0.7989052 -0.9626748 -0.9991714
000380 b4 fd 7f bf db c9 7f bf 02 98 7f bf 5d fd 7a bf
       -0.99996495 -0.9991738 -0.9984132 -0.9804285
000390 fb f9 68 bf 5f 85 3f bf 2f 29 c9 be b9 29 fc 3d
       -0.9100644 -0.74812883 -0.39289233 0.123126455
0003a0 37 a0 07 3f 84 96 9e 3e c3 53 ee be 28 55 62 bf
       0.52978843 0.3097421 -0.4654828 -0.8841119
0003b0 c1 87 c2 be 9e b2 c8 3e 2c df 30 3f f0 84 b5 3e
       -0.37994197 0.39198774 0.69090533 0.35452986
0003c0 f2 52 fd bd cb 26 8c be 02 a7 48 be 25 a3 2c be
       -0.12369336 -0.27373347 -0.19594958 -0.1685911
0003d0 2f 35 79 be cb 04 a6 be 4d 95 d0 be 36 15 ed be
       -0.24336694 -0.32425532 -0.40738907 -0.46305245
0003e0 53 58 14 bf 85 6d 4e bf ce c1 78 bf cc 8f 7f bf
       -0.5794727 -0.80635864 -0.9717072 -0.9982879
0003f0 ca fb 7f bf 50 a9 7f bf 41 1e 80 bf 69 d6 79 bf
       -0.99993575 -0.99867725 -1.0009233 -0.9759279
